True
Files already downloaded and verified
Files already downloaded and verified
----------------------------------------------------------------
        Layer (type)               Output Shape         Param #
================================================================
            Conv2d-1           [-1, 16, 32, 32]             432
       BatchNorm2d-2           [-1, 16, 32, 32]              32
              ReLU-3           [-1, 16, 32, 32]               0
            Conv2d-4           [-1, 64, 32, 32]           9,216
       BatchNorm2d-5           [-1, 64, 32, 32]             128
              ReLU-6           [-1, 64, 32, 32]               0
            Conv2d-7           [-1, 64, 32, 32]          36,864
            Conv2d-8           [-1, 64, 32, 32]           1,024
        BasicBlock-9           [-1, 64, 32, 32]               0
     NetworkBlock-10           [-1, 64, 32, 32]               0
      BatchNorm2d-11           [-1, 64, 32, 32]             128
             ReLU-12           [-1, 64, 32, 32]               0
           Conv2d-13          [-1, 128, 16, 16]          73,728
      BatchNorm2d-14          [-1, 128, 16, 16]             256
             ReLU-15          [-1, 128, 16, 16]               0
           Conv2d-16          [-1, 128, 16, 16]         147,456
           Conv2d-17          [-1, 128, 16, 16]           8,192
       BasicBlock-18          [-1, 128, 16, 16]               0
     NetworkBlock-19          [-1, 128, 16, 16]               0
      BatchNorm2d-20          [-1, 128, 16, 16]             256
             ReLU-21          [-1, 128, 16, 16]               0
           Conv2d-22            [-1, 256, 8, 8]         294,912
      BatchNorm2d-23            [-1, 256, 8, 8]             512
             ReLU-24            [-1, 256, 8, 8]               0
           Conv2d-25            [-1, 256, 8, 8]         589,824
           Conv2d-26            [-1, 256, 8, 8]          32,768
       BasicBlock-27            [-1, 256, 8, 8]               0
     NetworkBlock-28            [-1, 256, 8, 8]               0
      BatchNorm2d-29            [-1, 256, 8, 8]             512
             ReLU-30            [-1, 256, 8, 8]               0
             ReLU-31                  [-1, 256]               0
           Linear-32                  [-1, 128]          32,896
             ReLU-33                  [-1, 128]               0
           Linear-34                   [-1, 10]           1,290
       WideResNet-35  [[-1, 256], [-1, 128], [-1, 10]]               0
================================================================
Total params: 1,230,426
Trainable params: 1,230,426
Non-trainable params: 0
----------------------------------------------------------------
Input size (MB): 0.01
Forward/backward pass size (MB): 10.75
Params size (MB): 4.69
Estimated Total Size (MB): 15.46
----------------------------------------------------------------
…
